…
26400/26400 [==============================] - 186s - loss: 0.0233 - val_loss: 0.0134
Epoch 7/7
26368/26400 [============================>.] - ETA: 0s - loss: 0.0227Epoch 00006: saving model to models/weights-06.h5
26400/26400 [==============================] - 186s - loss: 0.0227 - val_loss: 0.0172





____________________________________________________________________________________________________
Layer (type)                     Output Shape          Param #     Connected to                     
====================================================================================================
lambda_1 (Lambda)                (None, 160, 230, 3)   0           lambda_input_1[0][0]             
____________________________________________________________________________________________________
lambda_2 (Lambda)                (None, 66, 200, 3)    0           lambda_1[0][0]                   
____________________________________________________________________________________________________
lambda_3 (Lambda)                (None, 66, 200, 3)    0           lambda_2[0][0]                   
____________________________________________________________________________________________________
convolution2d_1 (Convolution2D)  (None, 31, 98, 24)    1824        lambda_3[0][0]                   
____________________________________________________________________________________________________
convolution2d_2 (Convolution2D)  (None, 14, 47, 36)    21636       convolution2d_1[0][0]            
____________________________________________________________________________________________________
convolution2d_3 (Convolution2D)  (None, 5, 22, 48)     43248       convolution2d_2[0][0]            
____________________________________________________________________________________________________
convolution2d_4 (Convolution2D)  (None, 3, 20, 64)     27712       convolution2d_3[0][0]            
____________________________________________________________________________________________________
convolution2d_5 (Convolution2D)  (None, 1, 18, 64)     36928       convolution2d_4[0][0]            
____________________________________________________________________________________________________
flatten_1 (Flatten)              (None, 1152)          0           convolution2d_5[0][0]            
____________________________________________________________________________________________________
dense_1 (Dense)                  (None, 100)           115300      flatten_1[0][0]                  
____________________________________________________________________________________________________
dropout_1 (Dropout)              (None, 100)           0           dense_1[0][0]                    
____________________________________________________________________________________________________
dense_2 (Dense)                  (None, 50)            5050        dropout_1[0][0]                  
____________________________________________________________________________________________________
dropout_2 (Dropout)              (None, 50)            0           dense_2[0][0]                    
____________________________________________________________________________________________________
dense_3 (Dense)                  (None, 20)            1020        dropout_2[0][0]                  
____________________________________________________________________________________________________
dropout_3 (Dropout)              (None, 20)            0           dense_3[0][0]                    
____________________________________________________________________________________________________
dense_4 (Dense)                  (None, 1)             21          dropout_3[0][0]                  
====================================================================================================
Total params: 252,739
Trainable params: 252,739
Non-trainable params: 0


--


commit: 8766902

in 7 epochs passes. go very sharp to the left on the right curve.


OFFSETCAMS=0.25
MAXTRANSLATE=50
MAXBRIGHT=.5
SIGMADELZEROS=0.25

LEARNINGRATE=0.0001
EPOCHS=7
…
